fp_rate/workloads/ddp-multigpu/mldaikon_run_multigpu_torch_2.2.2+cu121_2025-03-09_15-31-19/checkpoint.pt (torch, 3304 bytes, 3 tensors)

net.weight f4 [15, 20]
000000 78 48 4d be 2c 2b 8c bd ea 02 11 be 58 7e 15 3e
       -0.20047176 -0.06844172 -0.14161268 0.14598978
000010 b2 61 d9 bc d1 1e 66 3d ff 85 02 be 17 ab 5e bc
       -0.026535843 0.056181733 -0.12746428 -0.013590596
000020 45 cc ef 3d 9a 73 8f 3d 26 06 90 3d 9a ba 18 3e
       0.11708883 0.07004471 0.07032423 0.14914933
000030 fe 0f 0e be ce 7a 14 be 72 f6 b7 3d dd c5 31 be
       -0.13873288 -0.14499971 0.089825526 -0.17360635
000040 ec 97 05 bc 75 cc de bd 2f 54 4c 3e 37 c8 24 be
       -0.008153897 -0.10878841 0.19953988 -0.16092001
000050 e1 52 4a be e7 2e 19 3e a6 85 96 3d 81 6e 55 3e
       -0.19758178 0.14959298 0.0734971 0.20842935
000060 28 2d 0e be b1 5d 21 3e 68 91 63 3e 1c 35 42 3e
       -0.13884413 0.15758397 0.22223437 0.18965572
000070 ab f4 2c 3e 2c a1 5c 3d 0e 1f 03 be f7 73 84 3d
       0.16890208 0.053864643 -0.12804815 0.06467431
000080 db ae 5f be 07 1e 16 3e 67 83 02 be 28 eb 2a 3e
       -0.21844046 0.14659892 -0.12745439 0.16691267
000090 bf 09 49 3e ff 1c c2 3c c2 26 1a 3e 09 10 73 bd
       0.19632624 0.023695467 0.15053847 -0.059341464
0000a0 b1 c2 85 3d 67 4b 81 bd b5 8f e7 3d 2f 85 5b 3d
       0.06531275 -0.0631321 0.11306707 0.05359381
0000b0 62 12 24 3d 17 a6 43 be f4 d3 d7 3d 7b 4a 2b 3e
       0.040056594 -0.19106327 0.10538474 0.16727631
0000c0 e5 44 fe bd 64 7c c7 bd f1 a6 1c 3d c8 74 ff bc
       -0.12415484 -0.097405225 0.038245145 -0.031183615
0000d0 cb a1 00 bd 80 36 48 3e 12 3e 8a 3d 8d db 79 bd
       -0.031404298 0.1955204 0.0675012 -0.061000396
0000e0 fb 1f aa bd 00 81 0e 3e 9d c0 b1 bd f0 eb 5d 3e
       -0.08306881 0.13916397 -0.08679316 0.21672034
0000f0 fc 8b 1b be a2 04 a7 bd 64 f8 ab bd 5f f7 a0 bd
       -0.15190119 -0.081551805 -0.08396986 -0.07859682
000100 0a 25 8f bd 6c 1e 30 3e c4 2c 27 3e 3b f7 b4 3b
       -0.069894865 0.17199105 0.1632567 0.005522636
000110 dd 81 c8 3d dc ce 21 3e f7 cd e9 bd 3a 21 19 be
       0.097903945 0.15801567 -0.11416238 -0.14954081
000120 2b 6d 09 be 98 96 11 3e e2 1c 28 3d a7 12 0c be
       -0.1342055 0.14217603 0.04104317 -0.1367899
000130 78 cc 57 be 7e 92 78 bd d2 69 41 3c 66 c6 af bd
       -0.21074092 -0.06068658 0.011805015 -0.085827634
000140 64 85 22 3e 98 e3 c7 bc b8 4f 47 3c 92 ab 99 3d
       0.15871197 -0.024400517 0.0121650025 0.075034276
000150 5e 5c 91 bd 25 6d 6a bd 25 06 32 3e 8f b5 31 bd
       -0.07097696 -0.057232995 0.17385156 -0.04338604
000160 a1 75 75 bd 64 1e 21 3e 9e 87 62 3e ff 76 06 3e
       -0.059926633 0.1573425 0.22122046 0.13131331
000170 1a 7c 0b bd fb d0 44 be 29 33 d6 3d 66 a1 bb 3d
       -0.0340539 -0.19220345 0.10458977 0.09161644
000180 26 70 20 be cf 7b 27 be 6d 51 22 be 4b 8b 57 3e
       -0.15667781 -0.16355823 -0.15851374 0.2104923
000190 d7 13 1d 3d 06 05 42 bd 3d fb 3e 3e ce 34 e2 bd
       0.038349 -0.047368072 0.18650527 -0.11045228
0001a0 40 99 d3 3d 6c af 04 3d c6 fd 8c 3d d1 0b ad 3c
       0.103319645 0.032393858 0.06884341 0.021123799
0001b0 bf 1a 6e 3d 95 eb 26 3e 10 2d a4 bd b2 c0 23 be
       0.058130976 0.16300805 -0.080164075 -0.15991476
0001c0 a1 c6 e7 3d 76 69 61 3e 4d 4d 0d 3e 2b 6b 15 bd
       0.11317182 0.22012886 0.13799019 -0.036479156
0001d0 39 45 5b bd 53 12 3b 3e ac bb 9a bd 07 e6 20 3e
       -0.053532813 0.18268709 -0.07555327 0.15712748
0001e0 65 e4 0c bd 5c 5c 2d 3e ef 62 fd 3d 9e f5 5f be
       -0.0343975 0.16929764 0.12372386 -0.2187104
0001f0 e8 ef 40 3d 50 c7 1c 3d b4 02 08 3d 46 ad 16 be
       0.047103792 0.038276017 0.033205703 -0.14714536
000200 54 e2 64 3e fa 23 e9 bc 88 60 eb 3d fb 2b 4a 3e
       0.22351962 -0.028459538 0.11493021 0.1974334
000210 3a 93 39 be 89 8f 69 bd 87 ae 28 3e 08 b3 43 3e
       -0.18122569 -0.05702165 0.16472827 0.19111264
000220 ff 0b 59 3e 0c bb 0c bc 17 7a 76 3d b9 b2 8b bd
       0.21195982 -0.008589517 0.060175028 -0.06821198
000230 aa 5d d1 bc df fd 0b 3e 06 91 8a 3d e3 11 8d bc
       -0.025557358 0.13671063 0.06765942 -0.017220443
000240 17 00 fe 3d 73 a2 4a be 73 46 ab 3d d0 64 fc 3d
       0.12402361 -0.19788532 0.083630465 0.12323916
000250 8d 5c 82 bd b6 ce cb 3d d2 72 4d 3e f7 84 d7 bd
       -0.06365309 0.09951536 0.20063332 -0.10523408
000260 8f 28 19 3e a0 9c 14 be 7b 91 e5 bd 67 a7 b8 3c
       0.14956878 -0.14512873 -0.11209389 0.022540761
000270 49 95 4f be de 45 9e 3d dd 25 2b be 30 a7 bc bc
       -0.20271792 0.0772817 -0.16713662 -0.02302894
000280 f9 c7 99 bd cd 22 59 be a2 93 87 3d 7e b6 d9 bc
       -0.07508845 -0.21204682 0.066199556 -0.026576277
000290 ed 4e 31 be a1 08 15 bd f6 08 00 3e 41 28 0b be
       -0.17315264 -0.036385182 0.12503418 -0.13589574
0002a0 b9 6d 91 bd 29 6d ea bb 5c f2 19 3e 9d fe 2a be
       -0.07101006 -0.007154126 0.15033859 -0.1669869
0002b0 f4 46 a2 bd 7d dc a0 bd 93 b9 1c be 90 69 0e be
       -0.079236895 -0.07854555 -0.15305166 -0.13907456
0002c0 90 88 15 3e b9 9e aa 3d 72 5e d6 3d a9 01 98 3d
       0.14602876 0.08331055 0.10467233 0.07422192
0002d0 bb 73 64 3e 28 ff ee bd 7f 6e 1d be 4d c1 5c be
       0.22309773 -0.11669761 -0.15374182 -0.21558113
0002e0 07 6e 34 3e d4 58 a0 3d 10 ea 09 3e b9 64 f6 3d
       0.17620097 0.078294426 0.13468194 0.1203093
0002f0 47 ca c0 3c 5d c6 dd 3d a5 1d 54 be 71 b6 52 3e
       0.023533953 0.108288504 -0.20714433 0.20577408
000300 01 96 a0 bd 5d 4a 10 be 63 4e 12 be 7c d6 99 bd
       -0.07841111 -0.14090867 -0.14287715 -0.07511613
000310 4e cc 84 bd 92 68 44 be 50 fd 43 bd 5f 2f b9 bd
       -0.064842805 -0.19180515 -0.047849 -0.090422384
000320 20 8e 05 be 85 90 cc 3d 3b 34 dd 3b 6f 31 4f be
       -0.13042498 0.099885024 0.006750611 -0.20233701
000330 cb f2 73 bd ee 53 be bd d7 75 1e 3d 32 93 06 be
       -0.059557717 -0.09293352 0.0386866 -0.13142088
000340 dd 71 50 be e8 95 fd 3d 98 7d 9e 3d 5b 39 f4 3d
       -0.20355935 0.12382108 0.07738799 0.11925002
000350 d6 e2 c2 bc 82 f3 bb 3d 24 76 2e bd 00 f4 8e bd
       -0.023789804 0.09177305 -0.042593136 -0.06980133
000360 0d 87 2b be 75 fd 30 3b df 83 9f bd 02 68 a3 3d
       -0.16750737 0.002700654 -0.07788824 0.07978822
000370 d8 18 41 3e 08 cc 36 be db b2 ec bd e3 a2 04 bc
       0.18857133 -0.17851269 -0.115575515 -0.008095476
000380 eb c1 5d 3e ca 11 10 be 06 26 24 be 73 21 3d be
       0.21656005 -0.14069286 -0.1603013 -0.18469791
000390 40 1a 37 be e8 6b 47 be 32 da 61 be 8c f1 37 3e
       -0.17881107 -0.19474757 -0.22055891 0.17963237
0003a0 11 12 8d bd 34 d6 5b 3e 23 b3 27 3e 08 34 a0 3d
       -0.068882115 0.21468431 0.16376929 0.07822424
0003b0 2d e2 26 3d 1e b1 2a 3e 6e 15 63 3e 26 21 58 3e
       0.04074304 0.16669127 0.22176144 0.21106395
0003c0 6a 22 5c be 7a 4c 8b 3a b0 f8 f3 3d d1 f4 1d be
       -0.21497503 0.001062765 0.11912668 -0.15425421
0003d0 04 3f af 3c e8 79 f5 3d 9e ef 25 be 2c 32 79 bd
       0.021392353 0.119861424 -0.16204688 -0.060838863
0003e0 4c 85 03 be 9f cf f8 bc 4e e1 24 3e 12 e7 0d 3d
       -0.12843817 -0.030372439 0.16101572 0.034644194
0003f0 fd ed 76 3d 4d 63 42 3e 7e 37 27 be 0f 24 e5 bd
       0.060285557 0.18983193 -0.16329762 -0.11188518

net.bias f4 [15]
000000 9d 8e 81 3b 91 80 0f 3e a6 eb e0 bd 18 2d 47 be
       0.0039537684 0.14013888 -0.10982446 -0.19450796
000010 b7 5c ff bd c7 4b 61 3e ae 62 05 be ac a3 62 3e
       -0.12468856 0.22001563 -0.13025925 0.22132748
000020 0e fb bd 3d 91 5d 5c 3e 9c 8e 60 be 6d 99 a9 bd
       0.092764005 0.21520068 -0.21929401 -0.08281217
000030 9e 7c 02 be 22 88 46 3e 8e 54 4f 3d
       -0.1274285 0.19387868 0.050617747

net2.weight f4 [1, 15]
000000 85 b7 1d be 76 4c 7a 3e e6 77 69 3e 84 98 ae bd
       -0.15402038 0.2444323 0.22799644 -0.08525184
000010 19 2c 0d 3e b9 d5 49 3e 72 78 3d 3d 51 f2 81 3e
       0.13786353 0.19710435 0.046257444 0.25380185
000020 4b e1 43 be 05 40 53 3e 7b 44 07 be a9 18 49 bd
       -0.19128911 0.2062989 -0.13209717 -0.049095783
000030 c5 a0 bd bd 43 4b 1d 3e 39 ee 3a be
       -0.0925918 0.15360741 -0.18254937
