fp_rate/workloads/trace_ddp-multigpu/checkpoint.pt (torch, 3304 bytes, 3 tensors)

net.weight f4 [15, 20]
00000000: f1df ce3b 58d3 5b3e 0b61 983d a8a4 5a3e
00000010: 36e7 e0bd e8bd 51be 96fe 08be c3cc e3bc
00000020: f0c4 04be 6ec5 c2bd 0d29 39be 82f1 43be
00000030: f9f8 19be 30bb af3a a095 8ebd 095c 013e
00000040: 7576 0d3e a773 05bd 6dc1 5d3e f604 38be
00000050: 469b 263e 2424 06bd bd28 40bd 1b3c d6bd
00000060: 4500 4dbe 3bfe 89bd 14ed 02bd 302e 42be
00000070: 5b49 babd 73d0 db3d 3465 cbbd 85cf b43d
00000080: 9b15 05be 73e1 2cbe fba8 4dbe b9ac 26bd
00000090: b0cf 83bd 1c4f 543e 6c27 1b3e e2e7 313e
000000a0: 7536 d8bd a5cf 43be 45f5 27be 7a3e 9abd
000000b0: 352f 373e 1d20 a3bc ca69 30be 667b 2d3e
000000c0: 7fcf 0dbe 5461 303e ce29 32be 9dfd 4cbe
000000d0: d1cc 1fbe 7ac7 5bbd 942f 58be f3c4 b63d
000000e0: d23f 41be 1fb9 d63d 46b5 df3d ecfa 9b3d
000000f0: 9077 153e 707b 16bd 8b20 d23d e26f fc3d
00000100: 609a 10bd 6be7 d63d b2f1 0abe 2bd2 2bbd
00000110: dd2b c63d a9d9 da3d 95e3 98bd c5b4 a5bd
00000120: d6ac 23be b2e9 26be efc1 26be 3242 b23d
00000130: 38e8 403e 8c1e e9bc 728e 613e e55e 4d3e
00000140: c964 493e a011 aabd fea9 07be 0890 583d
00000150: 4b3b 01be 9126 43be be80 ca3c 92b4 d3bc
00000160: 8489 d83d 91d3 013e 5248 3d3e 2130 183d
00000170: 9c52 3b3e 2389 36be 5d71 84bd 2498 1cbe
00000180: 74aa 253e b485 e13d c3f1 61be 54bc 0fbe
00000190: 7197 e0bd 5892 e4bd 75df 1fbe d281 113e
000001a0: ad7c c53d 6b4e eabd d503 08bb 1a85 333d
000001b0: 57bb bd3d dba4 9b3b a5de 40be e0f4 0dbe
000001c0: e662 093e 163b 59bd 753a 7cbc bedf 41be
000001d0: d520 14be 00bd ed3d ad91 fcbb 9b02 d7bd
000001e0: c946 e43d 6544 003d 5ca7 09be 3217 423e
000001f0: e9e6 fd3d 8fd3 28be a658 443e cba5 383e
00000200: e182 cbbd adb3 ea3d 5c61 2cbe cc75 4cbe
00000210: 52e7 893d 47a4 f4bb ce4c 1dbe 85d8 463e
00000220: d0e5 0fbe 70ab 06be 8d6a cbbc 6311 1abe
00000230: 356f 4c3e a775 4c3e 311d d43d 515d 0a3e
00000240: b896 e33c 6f52 f23d 0e3f b0bd 9354 cdbd
00000250: df6e 533e 0f67 b73d a196 1b3e c3a9 0cbe
00000260: a1d5 e1bd 272e b63d d6db 41be fee7 253e
00000270: 59a6 e6bd 5b08 4bbe a96f 39bd 1e18 88bd
00000280: 4904 6a3d e439 4cbe ce84 fdbd 396a 45be
00000290: 35da a8bc 3102 10be 74fd 5ebc 5f6b 273e
000002a0: 747b f2b9 a656 9dbc fc9b 3a3e d8e1 b33c
000002b0: f2f7 793d 3443 97bc 5ff9 07be 3a7c ff3d
000002c0: 7902 3b3e 1009 f53d e5c4 f3bd f696 02bd
000002d0: e66c b6bd d71d 54be 38a1 51be 0872 7ebd
000002e0: 95c0 2f3d b0ba c9bc 9111 8e3d e19d 893d
000002f0: 03b8 6bbd b9c9 e0bd 16b3 32be d78b 14be
00000300: 067d 1b3e 724c f83d be76 4fbe 80fb 37be
00000310: 0a9e ab3b 0cf5 4dbd fea2 5ebe f907 993d
00000320: b7ac d83c 85f0 bc3d 1e21 41bd 3afe 8fbd
00000330: 45d7 dfbd f32b 19be 3fc3 4d3e 56fe 29be
00000340: 220d b2bd 71f6 08be 3077 1e3e 27ff 273e
00000350: 0b09 1a3e 42a2 0c3d 59f6 b0bd 40b4 dabd
00000360: 5fba 0c3e eae0 1d3e 63f9 4a3e 9018 bd3a
00000370: a990 573e 6653 3d3d 4c15 e23b e74c 323e
00000380: f20c 34be 5f10 5d3c b93d 1a3e 1c0f 00be
00000390: 45b6 d0bd 2f6f f0bc 668c 1dbe 7133 54be
000003a0: 5ed4 a93d 6ad9 8e3d 5738 25bd 1d6e 583d
000003b0: b9d9 f3bd 99a7 2d3e 9bf4 e53d 9f47 fbbc
000003c0: 4ca3 40be 9d5e 0cbe db72 393d 72eb d0bd
000003d0: a985 ff3d 799b ecbd 7f81 4c3e 28f3 2fbe
000003e0: 849e fc3d 334e a0bd cce2 223e 7445 dc3d
000003f0: 4b5b cc3d c47e 2b3e 29ca a63c cf07 9dbd
0.006313317 0.2146734 0.074403845 0.21351874 -0.109816 -0.204826 -0.13378367 -0.027807599
-0.1296575 -0.09510313 -0.18082066 -0.19135097 -0.15036382 0.0013407227 -0.069621325 0.12632765
0.13814719 -0.032580998 0.21655817 -0.17970642 0.1627017 -0.03274931 -0.04691385 -0.10460683
-0.20019634 -0.06737944 -0.031964377 -0.18962932 -0.09096023 0.10733118 -0.09931412 0.08828644
-0.12996523 -0.16882877 -0.20083992 -0.040692065 -0.064360976 0.20733303 0.15151757 0.17373613
-0.10557262 -0.19122179 -0.16402157 -0.07531448 0.17889102 -0.019912774 -0.17227855 0.16941604
-0.13848685 0.17224628 -0.1739876 -0.20018621 -0.15605475 -0.053657033 -0.211119 0.08924284
-0.18872002 0.10484528 0.10923247 0.07616219 0.1459639 -0.036738813 0.10260113 0.123260275
-0.035303473 0.10493358 -0.13568762 -0.04194848 0.09676335 0.10686047 -0.07465283 -0.0809112
-0.159839 -0.16300085 -0.16284917 0.08704032 0.18838584 -0.028456949 0.22026995 0.2005573
0.19667353 -0.08304143 -0.1324844 0.052871734 -0.12620275 -0.1905768 0.024719592 -0.025842939
0.10573104 0.12678362 0.1848462 0.037155274 0.18293232 -0.17825751 -0.06466935 -0.15292412
0.16178304 0.1101183 -0.22064881 -0.14036685 -0.10966385 -0.11160725 -0.15612586 0.14209679
0.09642921 -0.11440738 -0.0020754237 0.043828107 0.09264248 0.004749877 -0.18834932 -0.13862944
0.13416633 -0.053034864 -0.015394797 -0.18933007 -0.1446565 0.116083145 -0.0077077956 -0.10498544
0.11146314 0.031315226 -0.13442749 0.18954161 0.12397558 -0.16486953 0.19174442 0.18031995
-0.099370725 0.11460052 -0.16834015 -0.19966811 0.06733574 -0.0074658724 -0.1536133 0.19418533
-0.1405251 -0.13151336 -0.02483108 -0.15045695 0.19964297 0.19966756 0.1035713 0.1351216
0.02778183 0.11832129 -0.08605777 -0.10025897 0.20647763 0.08955204 0.15194179 -0.13736634
-0.110270746 0.088955216 -0.18931517 0.16201779 -0.11262197 -0.19827406 -0.045272503 -0.06645225
0.057132993 -0.19943959 -0.12378846 -0.19278802 -0.020611862 -0.14063336 -0.013610233 0.16349553
-0.00046249817 -0.019206356 0.18223566 0.021958277 0.061027475 -0.018464662 -0.13278721 0.12474866
0.18262662 0.11964619 -0.11902789 -0.03188225 -0.089074895 -0.20714508 -0.20471656 -0.062120467
0.04290827 -0.024625152 0.06936944 0.06719566 -0.057548534 -0.109759755 -0.17451128 -0.1450647
0.15184411 0.12123956 -0.2026014 -0.17967033 0.0052373456 -0.050282523 -0.21741864 0.07472224
0.026449544 0.09225563 -0.047150724 -0.07030912 -0.10929731 -0.14958172 0.20094012 -0.16600928
-0.08693911 -0.1337526 0.15475154 0.16405927 0.15042512 0.03433443 -0.08640737 -0.10678911
0.1374297 0.15417829 0.19821696 0.0014426876 0.21051277 0.046222113 0.0068995114 0.17412148
-0.17583063 0.013492673 0.15062608 -0.12505764 -0.10191015 -0.029349891 -0.15385589 -0.20722748
0.08292459 0.06975062 -0.040336933 0.052839387 -0.11906762 0.16958465 0.112282954 -0.0306738
-0.18812293 -0.13707967 0.04527555 -0.10201158 0.124766655 -0.115530916 0.19971274 -0.171826
0.12334922 -0.07827415 0.15906829 0.10755435 0.0997835 0.16747576 0.02036007 -0.07667505

net.bias f4 [15]
00000000: a4fa c63d fc25 173e bb0e ae3d 941c 01be
00000010: 97a5 b0bd c7e6 573e b284 3f3e f55f 3a3e
00000020: c4c4 0f3e 1d62 993d 7e31 fbbd 3e92 303e
00000030: 1b78 3e3e e8d4 61be 8f28 6fbd
0.09715775 0.14760584 0.08498903 -0.12608558 -0.08625334 0.21084128 0.18702963 0.18200667
0.14039904 0.07489417 -0.12265299 0.17243287 0.18600504 -0.22053874 -0.05838829

net2.weight f4 [1, 15]
00000000: 339f 6bbe 5760 183e b19e 5e3e c5c7 78bd
00000010: 1791 c73d 925f d63c 23fa 543e 7523 7cbe
00000020: 34a1 e5bd 7b03 9cbd 5f8f f93d a0d2 0a3e
00000030: a7a3 a6bd dfac 213d cc4c a63d
-0.23009948 0.148805 0.21740223 -0.06073739 0.097444706 0.026168618 0.20798545 -0.24622901
-0.11212388 -0.07617851 0.12185549 0.1355691 -0.08136683 0.039471503 0.081201166
